…
xecutionInfo":{"status":"ok","timestamp":1715021597552,"user_tz":240,"elapsed":408,"user":{"displayName":"Emmy Veselinov","userId":"15991982869453245141"}},"colab":{"base_uri":"https://localhost:8080/"},"outputId":"df355624-b06b-4e7f-b273-6f3a0737a3e6"},"execution_count":69,"outputs":[{"output_type":"stream","name":"stdout","text":["Model: \"sequential\"\n","_________________________________________________________________\n"," Layer (type)                Output Shape              Param #   \n","=================================================================\n"," conv2d (Conv2D)             (None, 14, 14, 20)        260       \n","                                                                 \n"," dropout (Dropout)           (None, 14, 14, 20)        0         \n","                                                                 \n"," conv2d_1 (Conv2D)           (None, 7, 7, 40)          3240      \n","                                                                 \n"," dropout_1 (Dropout)         (None, 7, 7, 40)          0         \n","                                                                 \n"," flatten (Flatten)           (None, 1960)              0         \n","                                                                 \n"," dense (Dense)               (None, 100)               196100    \n","                                                                 \n"," dropout_2 (Dropout)         (None, 100)               0         \n","                                                                 \n"," dense_1 (Dense)             (None, 3)                 303       \n","                                                                 \n","=================================================================\n","Total params: 199903 (780.87 KB)\n","Trainable params: 199903 (780.87 KB)\n","Non-trainable params: 0 (0.00 Byte)\n","_________________________________________________________________\n"]}]},{"cell_type":"markdown","source":["Test Prediction"],"met
…
