…
/localhost:8080/"},"id":"W2AonBk9Enpm","executionInfo":{"status":"ok","timestamp":1714870077130,"user_tz":240,"elapsed":1563,"user":{"displayName":"Emmy Veselinov","userId":"15991982869453245141"}},"outputId":"fdbe9478-0912-4e72-f23e-9edd88696fbd"},"execution_count":null,"outputs":[{"output_type":"stream","name":"stdout","text":["Model: \"sequential_17\"\n","_________________________________________________________________\n"," Layer (type)                Output Shape              Param #   \n","=================================================================\n"," conv2d_34 (Conv2D)          (None, 13, 13, 32)        320       \n","                                                                 \n"," conv2d_35 (Conv2D)          (None, 11, 11, 64)        18496     \n","                                                                 \n"," max_pooling2d_17 (MaxPooli  (None, 5, 5, 64)          0         \n"," ng2D)                                                           \n","                                                                 \n"," dropout_34 (Dropout)        (None, 5, 5, 64)          0         \n","                                                                 \n"," flatten_17 (Flatten)        (None, 1600)              0         \n","                                                                 \n"," dense_34 (Dense)            (None, 128)               204928    \n","                                                                 \n"," dropout_35 (Dropout)        (None, 128)               0         \n","                                                                 \n"," dense_35 (Dense)            (None, 3)                 387       \n","                                                                 \n","=================================================================\n","Total params: 224131 (875.51 KB)\n","Trainable params: 224131 (875.51 KB)\n","Non-trainable params: 0 (0.00 Byte)\n","_________________________________________________________________\n"]}]},{"cell_type":"markdown","source":["# CNN Strategy"],"meta
…
