…
":{"base_uri":"https://localhost:8080/"},"executionInfo":{"status":"ok","timestamp":1715215167580,"user_tz":240,"elapsed":1990,"user":{"displayName":"Emmy Veselinov","userId":"15991982869453245141"}},"outputId":"527b8c8e-7bcf-42c1-e4d9-168a81be0802"},"execution_count":148,"outputs":[{"output_type":"stream","name":"stdout","text":["Model: \"sequential_1\"\n","_________________________________________________________________\n"," Layer (type)                Output Shape              Param #   \n","=================================================================\n"," conv2d_2 (Conv2D)           (None, 14, 14, 20)        260       \n","                                                                 \n"," dropout_3 (Dropout)         (None, 14, 14, 20)        0         \n","                                                                 \n"," conv2d_3 (Conv2D)           (None, 7, 7, 40)          3240      \n","                                                                 \n"," dropout_4 (Dropout)         (None, 7, 7, 40)          0         \n","                                                                 \n"," flatten_1 (Flatten)         (None, 1960)              0         \n","                                                                 \n"," dense_2 (Dense)             (None, 100)               196100    \n","                                                                 \n"," dropout_5 (Dropout)         (None, 100)               0         \n","                                                                 \n"," dense_3 (Dense)             (None, 3)                 303       \n","                                                                 \n","=================================================================\n","Total params: 199903 (780.87 KB)\n","Trainable params: 199903 (780.87 KB)\n","Non-trainable params: 0 (0.00 Byte)\n","_________________________________________________________________\n"]}]},{"cell_type":"markdown","source":["###Confusion Matrix Vi
…
