…
olab":{"base_uri":"https://localhost:8080/"},"executionInfo":{"status":"ok","timestamp":1715216026081,"user_tz":240,"elapsed":1033,"user":{"displayName":"Jubayer Ahmed","userId":"07082884469985273927"}},"outputId":"ffc2ea2b-ce97-4f47-8ba5-ac39dec0bf6f"},"execution_count":43,"outputs":[{"output_type":"stream","name":"stdout","text":["Model: \"sequential\"\n","_________________________________________________________________\n"," Layer (type)                Output Shape              Param #   \n","=================================================================\n"," conv2d (Conv2D)             (None, 13, 13, 32)        320       \n","                                                                 \n"," conv2d_1 (Conv2D)           (None, 11, 11, 64)        18496     \n","                                                                 \n"," max_pooling2d (MaxPooling2  (None, 5, 5, 64)          0         \n"," D)                                                              \n","                                                                 \n"," dropout (Dropout)           (None, 5, 5, 64)          0         \n","                                                                 \n"," flatten (Flatten)           (None, 1600)              0         \n","                                                                 \n"," dense (Dense)               (None, 128)               204928    \n","                                                                 \n"," dropout_1 (Dropout)         (None, 128)               0         \n","                                                                 \n"," dense_1 (Dense)             (None, 3)                 387       \n","                                                                 \n","=================================================================\n","Total params: 224131 (875.51 KB)\n","Trainable params: 224131 (875.51 KB)\n","Non-trainable params: 0 (0.00 Byte)\n","_________________________________________________________________\n"]}]},{"cell_type":"markdown","source":["###Confusion Matrix Vi
…
