…
EA","colab":{"base_uri":"https://localhost:8080/"},"executionInfo":{"status":"ok","timestamp":1715236108818,"user_tz":240,"elapsed":10,"user":{"displayName":"Eric Li","userId":"04119215893245069840"}},"outputId":"86de678e-cba2-40a9-912d-d9bb31e300a3"},"execution_count":99,"outputs":[{"output_type":"stream","name":"stdout","text":["Model: \"sequential_1\"\n","_________________________________________________________________\n"," Layer (type)                Output Shape              Param #   \n","=================================================================\n"," conv2d_2 (Conv2D)           (None, 14, 14, 20)        260       \n","                                                                 \n"," dropout_3 (Dropout)         (None, 14, 14, 20)        0         \n","                                                                 \n"," conv2d_3 (Conv2D)           (None, 7, 7, 40)          3240      \n","                                                                 \n"," dropout_4 (Dropout)         (None, 7, 7, 40)          0         \n","                                                                 \n"," flatten_1 (Flatten)         (None, 1960)              0         \n","                                                                 \n"," dense_2 (Dense)             (None, 100)               196100    \n","                                                                 \n"," dropout_5 (Dropout)         (None, 100)               0         \n","                                                                 \n"," dense_3 (Dense)             (None, 3)                 303       \n","                                                                 \n","=================================================================\n","Total params: 199903 (780.87 KB)\n","Trainable params: 199903 (780.87 KB)\n","Non-trainable params: 0 (0.00 Byte)\n","_________________________________________________________________\n"]}]},{"cell_type":"markdown","source":["###Confusion Matrix Vi
…
